data/aval_predictor_spike.pth (torch, 4447 bytes, 3 tensors)

fc1.weight f4 [64, 5]
0.59533405 0.004170495 -0.0029311492 -0.0015665169 -0.031261798 0.6331757 -0.012406382 -0.009978839
0.0039668255 -0.010685873 -1.1124289 -0.010152345 -0.018198127 -0.0010883976 -0.00697667 0.021711325
-0.11927613 -0.43244913 0.15085176 0.13224848 -1.1721301 0.0044542877 -0.016508624 -0.0072828606
-0.0021966787 -0.87182033 0.009709414 0.0031741082 -0.009787739 -0.02655331 0.49268758 -0.002350624
-0.0025094282 0.0016953275 -0.008455437 0.45163006 -0.019934066 0.0009988535 -0.0076409206 0.02091919
-1.1382802 0.002036182 -0.011390625 -0.014698402 -0.004337853 -0.15502979 0.07166409 -0.44191194
0.1358107 -0.35231334 0.5494405 0.015057299 0.0009869095 0.010652861 0.018057803 0.35429555
-0.07952734 -0.32636532 -0.30976173 -0.021583581 0.42907488 -0.0054187602 -0.0047961944 0.015644964
0.016894378 0.58926654 0.004023238 -0.029906515 -0.018274793 -0.009312505 0.52027893 0.0145002855
0.0027040867 0.017783353 0.011569121 -0.909258 -0.0022734578 -0.023381533 -0.00053146493 0.0116110975
-0.8620652 -0.016675524 0.024768716 -0.0089795245 0.006823979 0.59184813 -0.025764853 -0.027391616
-0.00041045295 -0.028238477 0.4261374 0.016536556 0.014660527 -0.03768472 -0.0059947204 -1.1251572
0.0015892341 -0.020900263 -0.022780547 -0.021912817 0.5968542 -0.0048774322 -0.0037645407 0.011881431
-0.0038733785 -0.92348826 -0.009642527 -0.01305986 -0.0062192 0.0103087835 -0.8142793 0.019615892
-0.019250795 0.024711298 -0.018643422 0.6545758 0.0041389335 -0.01233579 0.01011044 0.011418035
0.67166823 -0.010311732 0.008240084 -0.017246565 0.00011720057 -0.99462384 0.008643966 0.0018495106
0.009695275 0.015315206 -0.8764335 -0.021462524 -0.0051419367 -0.009156257 -0.013996475 0.42379475
-0.0004575366 0.015369928 -0.015794763 0.015572237 -0.7612281 -0.004118882 0.0084536085 -0.003366699
0.012913891 -0.89992917 0.007151048 -0.011604174 -0.014095816 -0.009603403 0.030368544 0.074988924
-0.054177705 -0.05866652 0.22383827 -0.9384971 -0.00019287597 -0.020344585 -0.013293648 0.0013305168
-0.8343267 -0.00992502 -0.025774552 -0.019167487 0.00732218 0.57005066 0.001034791 0.01358687
0.0076265675 -0.012302035 -0.32528847 0.30480143 0.072171696 -0.26939303 -0.3947629 0.18176055
-0.2179038 -0.37732178 -0.2789258 0.24730214 -0.8098488 0.0017252951 0.020837344 0.008422602
-0.002535958 -0.8069161 0.01639755 -0.021901058 -0.0017470373 0.013142853 -0.83150125 0.0062362533
0.030441927 0.0137569355 0.0074819494 0.6528114 0.002016351 0.0070694317 0.012952032 -0.0005498152
0.4169177 0.0051886817 0.0014241611 -0.0019094829 -0.018110622 0.6001226 0.019144556 -0.020337649
-0.014921599 -0.016800834 0.48280525 0.02708089 0.010552454 -2.029644e-05 -0.008541845 -0.8137738
0.035363663 0.02076886 0.012044178 0.006820264 0.67539304 0.0009854694 -0.020186113 0.025268337
-0.0134042725 0.4982235 -0.004234795 -0.02688739 -0.0009618039 -0.008470563 0.4971986 0.0108736195
-0.0046206727 0.0011010695 -0.0067572 -0.78425676 -0.0017341346 0.002739611 0.020893175 0.00354119
-0.36163378 0.14498077 -0.026563384 0.03528927 0.071879715 -0.03406383 0.31528774 -0.2936604
-0.09961223 0.14068572 0.49677742 0.0148977125 0.0077444953 0.008971612 0.014907385 0.43441027
00000000: d067 183f a6a8 883b 8618 40bb 9653 cdba
00000010: 5f0c 00bd cd17 223f 2344 4bbc 497e 23bc
00000020: 25fc 813b cd13 2fbc 1264 8ebf 0556 26bc
00000030: 3d14 95bc 90a8 8eba 8d9c e4bb f3db b13c
00000040: 0b47 f4bd f969 ddbe e278 1a3e 256c 073e
00000050: 5c08 96bf 46f5 913b 183d 87bc 10a5 eebb
00000060: 27f6 0fbb 9e2f 5fbf 3c14 1f3c b304 503b
00000070: c15c 20bc 5486 d9bc 8c41 fc3e ed0c 1abb
00000080: 3875 24bb c035 de3a ac88 0abc 0e3c e73e
00000090: c44c a3bc f6eb 823a b060 fabb b95e ab3c
000000a0: 2ab3 91bf 7771 053b be9f 3abc 91d1 70bc
000000b0: 8c24 8ebb 21c0 1ebe 9fc4 923d 4842 e2be
000000c0: f611 0b3e 6a62 b4be 22a8 0c3f e4b2 763c
000000d0: 305b 813a 5689 2e3c f5ed 933c 3a66 b53e
000000e0: 3bdf a2bd 5b19 a7be 1799 9ebe 0dd0 b0bc
000000f0: b4af db3e db8f b1bb 6529 9dbb de29 803c
00000100: 1466 8a3c 2cda 163f 5ed5 833b 82fe f4bc
00000110: 05b5 95bc 7a93 18bc 0031 053f 9b92 6d3c
00000120: 0c37 313b 65ae 913c 698c 3d3c 22c5 68bf
00000130: 4bfe 14bb a18a bfbc 0252 0bba 793c 3e3c
00000140: 4eb0 5cbf 1c9b 88bc c3e7 ca3c db1e 13bc
00000150: af9b df3b 5c83 173f d010 d3bc 6264 e0bc
00000160: 1032 d7b9 6154 e7bc ae2e da3e ac77 873c
00000170: b532 703c 4b5b 1abd 5c6f c4bb 2705 90bf
00000180: d94d d03a 0737 abbc 459e babc 8282 b3bc
00000190: 70cb 183f ded2 9fbb 83b6 76bb 55aa 423c
000001a0: 82d8 7dbb ba69 6cbf b1fb 1dbc 06f9 55bc
000001b0: 6eca cbbb 2ce6 283c 9c74 50bf 82b1 a03c
000001c0: d8b3 9dbc 596f ca3c 17ba 98bc 4892 273f
000001d0: e49f 873b 0e1c 4abc 42a6 253c b612 3b3c
000001e0: 73f2 2b3f 8af2 28bc 6b01 073c ab48 8dbc
000001f0: 94c9 f538 ab9f 7ebf 6c9f 0d3c 476b f23a
00000200: eed8 1e3c a1ec 7a3c f25d 60bf 2dd2 afbc
00000210: b17d a8bb 2004 16bc 7951 65bc a0fb d83e
00000220: 86e1 efb9 27d2 7b3c 0564 81bc b222 7f3c
00000230: d8df 42bf b0f7 86bb 0181 0a3c d6a3 5cbb
00000240: c994 533c c261 66bf 5753 ea3b 6f1f 3ebc
00000250: 23f2 66bc 9757 1dbc 74c7 f83c cb93 993d
00000260: 71e9 5dbd 4e4c 70bd dc35 653e 5941 70bf
00000270: c03e 4ab9 b0a9 a6bc 9acd 59bc bc64 ae3a
00000280: 6f96 55bf 8d9c 22bc 2725 d3bc 2205 9dbc
00000290: e6ee ef3b d7ee 113f d3a1 873a 779b 5e3c
000002a0: 49e8 f93b 798e 49bc 368c a6be ef0e 9c3e
000002b0: c1ce 933d e2ed 89be 5d1e cabe 701f 3a3e
000002c0: 2c22 5fbe 5230 c1be 5dcf 8ebe c63c 7d3e
000002d0: 4052 4fbf 4c23 e23a 14b3 aa3c f4fe 093c
000002e0: 5132 26bb 0e92 4ebf 2854 863c d969 b3bc
000002f0: d8fc e4ba 1f55 573c 44dd 54bf 7c59 cc3b
00000300: 5961 f93c c564 613c 242b f53b a61e 273f
00000310: c224 043b b1a6 e73b c234 543c 7921 10ba
00000320: 3d76 d53e d105 aa3b ebaa ba3a 9d47 faba
00000330: ba5c 94bc a2a1 193f 0bd5 9c3c 249b a6bc
00000340: b979 74bc e7a1 89bc 4032 f73e bed8 dd3c
00000350: 33e4 2c3c 4642 aab7 18f3 0bbc 7b53 50bf
00000360: 7dd9 103d 7523 aa3c f254 453c 857c df3b
00000370: 8fe6 2c3f de2a 813a 595d a5bc 8bff ce3c
00000380: 989d 5bbc 2717 ff3e 09c4 8abb f242 dcbc
00000390: 9121 7cba 1ec8 0abc d190 fe3e 4427 323c
000003a0: 0369 97bb c351 903a 816b ddbb 0dc5 48bf
000003b0: e74b e3ba 0c8b 333b 2a28 ab3c 4f13 683b
000003c0: 1028 b9be d775 143e 749b d9bc 7b8b 103d
000003d0: ac35 933d 8486 0bbd 656d a13e a85a 96be
000003e0: 7f01 ccbd eb0f 103e 9c59 fe3e 8915 743c
000003f0: 89c5 fd3b abfd 123c 1b3e 743c 066b de3e

fc1.bias f4 [64]
-0.06729855 -0.06763086 0.11654561 -0.27391547 0.121816814 0.10230849 -0.049773805 -0.04515466
0.11994096 -0.4034298 -0.06141927 -0.34451365 -0.04433047 -0.0630154 -0.062432393 0.10139805
0.099420525 -0.065294586 -0.048431557 0.11895555 -0.060840175 0.11248388 0.099612184 -0.07576159
-0.07948442 0.10515338 0.10166706 -0.043422528 0.09138094 0.10183997 -0.31773156 0.10317746
0.09436764 -0.067203015 -0.38908917 -0.40160254 0.090171315 0.09832855 0.089199476 -0.07635419
-0.054969028 -0.06495555 -0.067555845 0.092389666 -0.07353884 -0.05615251 -0.062344678 0.092455044
-0.21956249 -0.44437376 -0.059226353 -0.056441303 -0.3482529 -0.048908986 -0.061985254 -0.40151373
-0.04435587 0.10199411 -0.05484132 -0.04195723 0.090029456 -0.05272135 0.113320865 -0.32595256
00000000: d2d3 89bd 0c82 8abd 77af ee3d a63e 8cbe
00000010: 187b f93d 1d87 d13d 9edf 4bbd 18f4 38bd
00000020: 9ba3 f53d 5a8e cebe c692 7bbd 1864 b0be
00000030: de93 35bd 380e 81bd 1cb9 7fbd c8a9 cf3d
00000040: fd9c cb3d 2bb9 85bd 2b60 46bd f89e f33d
00000050: 8c33 79bd f35d e63d 7901 cc3d e428 9bbd
00000060: bac8 a2bd a85a d73d d236 d03d d2db 31bd
00000070: ee25 bb3d 7991 d03d b6ad a2be b44e d33d
00000080: d243 c13d bca1 89bd b236 c7be d99e cdbe
00000090: bdab b83d 7b60 c93d 37ae b63d 965f 9cbd
000000a0: 3427 61bd 6a07 85bd b85a 8abd cb36 bd3d
000000b0: 889b 96bd 2d00 66bd 225d 7fbd 1259 bd3d
000000c0: fdd4 60be f584 e3be 5597 72bd ff2e 67bd
000000d0: 344e b2be ca54 48bd 40e4 7dbd 3593 cdbe
000000e0: 80ae 35bd 4ae2 d03d 4ba1 60bd 58db 2bbd
000000f0: 5d61 b83d 58f2 57bd c514 e83d 41e3 a6be

fc2.weight f4 [1, 64]
0.034406774 0.060297422 -0.04854029 0.011715232 -0.04159362 -0.046920143 0.06244354 0.08324251
-0.05557512 0.09026167 0.064794764 -0.052567393 0.06946954 0.067418486 0.07155323 -0.04732513
-0.052452933 0.0753541 0.08302041 -0.049858715 0.0574681 -0.04171251 -0.045919515 0.0568532
0.043265175 -0.042602234 -0.05666901 0.07934958 -0.043822125 -0.055320874 -0.018734828 -0.049012817
-0.05074277 0.06244522 -0.06987503 -0.042050693 -0.045255292 -0.04603714 -0.052703228 0.042684242
0.08507311 0.045812584 0.06597872 -0.050533555 0.050893866 0.06163083 0.07614434 -0.04285794
-0.0142638255 -0.0070867175 0.06841438 0.067159116 0.010671034 0.05641467 0.06463049 0.081641525
0.059432007 -0.050944455 0.08143005 0.07733878 -0.045994557 0.07522189 -0.048559114 -0.051243212
00000000: 1eee 0c3d 6efa 763d 2fd2 46bd 3ff1 3f3c
00000010: 125e 2abd 562f 40bd ccc4 7f3d 0d7b aa3d
00000020: bda2 63bd 1cdb b83d 1eb3 843d e850 57bd
00000030: 0c46 8e3d b412 8a3d 808a 923d ffd7 41bd
00000040: e3d8 56bd 4053 9a3d 9b06 aa3d a738 4cbd
00000050: ac63 6b3d bdda 2abd 1a16 3cbd e7de 683d
00000060: d336 313d ae7f 2ebd c41d 68bd 0882 a23d
00000070: d47e 33bd 2498 62bd c879 99bc aac1 48bd
00000080: a7d7 4fbd 8fc6 7f3d a41a 8fbd 593d 2cbd
00000090: 9d5d 39bd 7191 3cbd 57df 57bd acd5 2e3d
000000a0: d03a ae3d faa5 3b3d da1f 873d 46fc 4ebd
000000b0: 1676 503d 9c70 7c3d 90f1 9b3d cf8b 2fbd
000000c0: d2b2 69bc b237 e8bb d71c 8c3d b88a 893d
000000d0: 90d5 2e3c 1213 673d fe5c 843d ac33 a73d
000000e0: fa6e 733d 22ab 50bd ccc4 a63d cb63 9e3d
000000f0: ca64 3cbd ef0d 9a3d ece5 46bd 67e4 51bd
